model_1542883196.pth (torch_old, 88628 bytes, 8 tensors)

conv1.weight f4 [10, 1, 5, 5]
0	0x3e721cd7	0.23643814
1	0x3d8a2edc	0.06747219
2	0xbe41dd7c	-0.18932146
3	0xbeb2fac8	-0.34956956
4	0xbea0162e	-0.31266922
5	0x3daa62e4	0.08319643
6	0x3e764025	0.24047907
7	0xbdd60d38	-0.1045174
8	0xbe984a9b	-0.2974442
9	0xbeee93ac	-0.4659704
10	0x3e470d11	0.19438578
11	0x3eb5f709	0.35540035
12	0x3ea8fde5	0.33006206
13	0x3e09666a	0.13417974
14	0x3ded07c7	0.11573749
15	0x3dec7619	0.11545963
16	0x3e68069a	0.22658768
17	0x3ef68315	0.48146883
18	0x3ee83b30	0.45357656
19	0x3e708271	0.2348726
20	0xbdb92321	-0.090399034
21	0x3d0de5b0	0.034642875
22	0x3e4d2db0	0.2003696
23	0x3e8f56c0	0.27995872
24	0x3e62b243	0.22138314
25	0xbda45eaf	-0.08025872
26	0x3a79fb2f	0.00095360255
27	0x3c964075	0.018341282
28	0x3e1f302d	0.15545721
29	0x3e4a4f6b	0.19756858
30	0xbe3423c0	-0.17591763
31	0xbd021510	-0.031758368
32	0x3ea7a4c8	0.32742906
33	0x3e9102b7	0.28322384
34	0xbd531e40	-0.05154252
35	0xbdfdf162	-0.12399556
36	0x3e4aff9a	0.19824067
37	0x3edc29d3	0.4300066
38	0x3e85ae7e	0.2610969
39	0xbebf1346	-0.37319392
40	0x3d7f3729	0.062308464
41	0x3ea3fb2b	0.32027563
42	0x3eae8094	0.34082472
43	0xbdc56573	-0.096384905
44	0xbec8d381	-0.39223865
45	0x3e901f15	0.28148714
46	0x3debf202	0.11520769
47	0x3df2857a	0.11841865
48	0x3e148989	0.1450559
49	0xbed029f4	-0.40657008
50	0xbe1a63bc	-0.15077108
51	0xbdffb089	-0.12484843
52	0xbe211bd8	-0.15733278
53	0xbe2886e9	-0.16457714
54	0x3e19e4c8	0.1502868
55	0xbd3f6e0c	-0.04673581
56	0xbe7319f9	-0.23740377
57	0x3db97dba	0.090571836
58	0xbd71423a	-0.05890105
59	0x3e550c21	0.20805408
60	0xbd8fb3f7	-0.070167474
61	0xbe055e33	-0.13024215
62	0xbdb11bf8	-0.08647913
63	0x3dec3417	0.11533373
64	0x3dc61179	0.096713014
65	0xbe06c6ed	-0.13161822
66	0xbe409536	-0.1880692
67	0x3e859887	0.26092932
68	0x3e56a0cd	0.20959778
69	0xbda9e068	-0.08294755
70	0xbe691c37	-0.2276467
71	0xbd7dd0f7	-0.061966863
72	0x3e59aad5	0.21256573
73	0x3d6e65a8	0.058202416
74	0x3e2d4168	0.16919482
75	0xbdd83ae3	-0.10558107
76	0xbe9bb76f	-0.30413386
77	0x3e4014ec	0.18757981
78	0x3e313388	0.17304814
79	0x3e81345e	0.25235265
80	0xbe5110aa	-0.20416513
81	0xbe8386c8	-0.25688767
82	0x3e671255	0.22565587
83	0x3e781581	0.24226953
84	0x3e484f27	0.19561444
85	0xbea65690	-0.32487917
86	0xbd0f6ee0	-0.035017848
87	0x3d20300b	0.039108317
88	0x3e60ea7e	0.21964452
89	0x3e38cb24	0.18046242
90	0xbe249874	-0.16073781
91	0x3d373123	0.044724595
92	0x3e375bcd	0.17906113
93	0x3eae9201	0.34095767
94	0x3e6dd8a2	0.2322717
95	0xbdb66378	-0.08905691
96	0xbddab0c9	-0.1067825
97	0x3e360a63	0.177774
98	0xbc14babd	-0.009077725
99	0x3e416f4a	0.1889011
100	0xbed39197	-0.41322014
101	0xbebadffa	-0.36499006
102	0xbea5d6f0	-0.32390547
103	0xbe8939b2	-0.2680183
104	0xbd4330ff	-0.04765415
105	0x3c66deb5	0.014091183
106	0xbdfb7238	-0.12277645
107	0xbcb772d3	-0.02239362
108	0xbd772dac	-0.06034629
109	0x3e1f2360	0.15540838
110	0x3d2bc345	0.04193427
111	0x3e96bc48	0.29440522
112	0x3eb54835	0.35406652
113	0x3ea33e9a	0.318837
114	0x3e89ec02	0.26937872
115	0x3e4103e5	0.18849142
116	0x3da338a2	0.07969786
117	0x3e78fd81	0.24315454
118	0x3de12eea	0.10995276
119	0xbd6ae68a	-0.057348765
120	0x3e326445	0.17421062
121	0xbceb24ff	-0.028704165
122	0xbdeeb3c9	-0.11655385
123	0xbdc4ecf1	-0.096155055
124	0xbd823b6d	-0.06358991
125	0xbd3855b6	-0.045003615
126	0xbe2e49a7	-0.17020284
127	0x3e181820	0.14852953
128	0x3cabd2c7	0.02097453
129	0x3e29ece5	0.16594274
130	0x3ca3cda3	0.019995516
131	0x3e7c773b	0.24654858
132	0x3e88bb7e	0.26705545
133	0x3dabdc80	0.083916664
134	0x3e4e926e	0.20173046
135	0x3c236fc4	0.0099753775
136	0x3e2f69cb	0.171302
137	0x3d236621	0.03989232
138	0x3e6dfd4e	0.2324116
139	0x3e2b1898	0.167086
140	0xbe9782f8	-0.2959211
141	0xbe56eac5	-0.20987995
142	0xbe9f4a86	-0.31111544
143	0xbe60781a	-0.21920815
144	0xbe8a43d3	-0.2700487
145	0xbd4a7d01	-0.04943562
146	0xbdfe5d8c	-0.124201864
147	0xbe544df2	-0.20732859
148	0xbe282b51	-0.16422774
149	0xbe90ad53	-0.28257236
150	0xbe5a98fb	-0.2134742
151	0xbe8e3883	-0.2777749
152	0xbe34d28d	-0.17658444
153	0xbd400582	-0.046880253
154	0x3e78b875	0.24289115
155	0xbd62c2d8	-0.0553616
156	0xbcc5ae79	-0.024131047
157	0xbe253252	-0.16132477
158	0xbe8f3746	-0.27971858
159	0x3d8943a6	0.06702356
160	0x3e4571be	0.1928167
161	0xbdc467ec	-0.09590134
162	0xbe7f54c8	-0.24934685
163	0xbe945b6d	-0.28976002
164	0xbe42e6df	-0.19033383
165	0x3e434f7c	0.1907329
166	0x3e7b38d6	0.245334
167	0x3e4ab219	0.19794501
168	0xbd96e32f	-0.073675506
169	0xbe6db27b	-0.23212616
170	0xba4b7277	-0.0007760892
171	0xbd3885c5	-0.045049448
172	0x3e8d64e2	0.2761603
173	0x3d0c840b	0.034305613
174	0xbc5e9827	-0.013586081
175	0x3e3432c0	0.17597485
176	0x3b21a54d	0.0024665177
177	0x3e568950	0.20950818
178	0x3e612e3c	0.21990293
179	0xbd2b8fbb	-0.04188512
180	0xbdb093ca	-0.086219385
181	0x3dc9c216	0.09851472
182	0x3ea53377	0.32265827
183	0x3ebb21d7	0.36549255
184	0x3e385146	0.17999753
185	0x3e1d4e33	0.15361862
186	0xbe1be054	-0.15222293
187	0x3d6e2ea7	0.05814996
188	0x3e298f8f	0.1655867
189	0x3e836eee	0.2567057
190	0xbda7dfb4	-0.08196965
191	0xbe1ed7a9	-0.15511955
192	0x3cf5f0c9	0.030022042
193	0xbdec6e15	-0.11544434
194	0x3eb46f76	0.35241288
195	0xbe6d0f17	-0.23150288
196	0xbea7ff41	-0.3281193
197	0xbeded40d	-0.43521157
198	0xbe4842f2	-0.19556788
199	0xbcabdf42	-0.020980481
200	0xbe53eab0	-0.20694995
201	0xbe64c195	-0.2233947
202	0xbde179ac	-0.11009535
203	0x3d5e039d	0.054202665
204	0xbd03375c	-0.032035217
205	0xbe27da2f	-0.16391824
206	0xbd023db1	-0.031797115
207	0xbe46a22c	-0.19397801
208	0xbdaabb4f	-0.083365075
209	0x3b9f097c	0.0048534255
210	0x3e7e8452	0.24855164
211	0xbba1ac81	-0.004933894
212	0x3d85437e	0.06507014
213	0xbcdf7a75	-0.027280072
214	0xbdfb42d1	-0.122686036
215	0x3e9e8718	0.30962443
216	0x3e9dd3d5	0.30825678
217	0x3e79447e	0.24342534
218	0xba9df794	-0.0012051933
219	0x3e39dc53	0.18150453
220	0xbe2ad873	-0.16684131
221	0xbd4ff2a9	-0.050768528
222	0xbd89febd	-0.067380406
223	0x3dcce09a	0.10003777
224	0xbd5b0d7a	-0.05347965
225	0xbdbb3072	-0.091400996
226	0xbe7acdfc	-0.2449264
227	0xbe2ba548	-0.16762269
228	0x3e3114d1	0.17293097
229	0xbd7caf53	-0.06169064
230	0xbe9b8d6e	-0.3038134
231	0xbe47ae5d	-0.19500108
232	0xbea05b22	-0.3131953
233	0x3dc0d881	0.09416295
234	0x3e3d9969	0.18515553
235	0xbd3f78d1	-0.04674608
236	0xbdefd511	-0.11710561
237	0xbe19833e	-0.14991471
238	0x3e5004ba	0.20314303
239	0x3e891443	0.2677327
240	0xbe13d9eb	-0.14438598
241	0xbdc1b03c	-0.09457442
242	0xbe345ea7	-0.17614232
243	0x3bfb9496	0.007677625
244	0x3e764715	0.24050553
245	0xbd8d0321	-0.068853624
246	0xbd182811	-0.037147585
247	0xbd95e9f0	-0.07320011
248	0x3e9fcc93	0.31210765
249	0x3e854fcb	0.2603744

conv1.bias f4 [10]
0	0xbd3c3a3d	-0.045953978
1	0xbe3679c3	-0.17819886
2	0xbd0fe20e	-0.035127692
3	0xbe84cea5	-0.25938907
4	0x3ddc0ae7	0.10744267
5	0xbd90e1d6	-0.07074325
6	0x3d3a9bb5	0.04555865
7	0x3db2a3f7	0.0872268
8	0xbc759830	-0.014989898
9	0x3dd77325	0.10520009

conv2.weight f4 [20, 10, 5, 5]
0	0xbd9753c2	-0.073890224
1	0xbe0b28f8	-0.13589847
2	0xbe0f5572	-0.13997439
3	0xbe17a5c7	-0.14809333
4	0xbd9ed31d	-0.077551104
5	0x3e13c456	0.14430365
6	0x3c371191	0.011173622
7	0x3da370c3	0.07980492
8	0xbced0500	-0.028933048
9	0xbd831cc3	-0.0640197
10	0x3b9a5c8a	0.0047107385
11	0xbdb8cf9e	-0.09023975
12	0x3dea8c5d	0.114525534
13	0x3e0ea577	0.13930307
14	0x3de9752f	0.11399304
15	0x3d92352d	0.07139049
16	0xbbbecceb	-0.005822768
17	0x3d451403	0.048114788
18	0x3d85643e	0.0651326
19	0x3dc7c460	0.097542524
20	0x3db80cb5	0.08986799
21	0xbcb05ff5	-0.02153013
22	0xbc991bd7	-0.018690033
23	0x3d37114b	0.044694226
24	0xbcd4beec	-0.025969945
25	0xbd2e3b69	-0.042537127
26	0xbe0fc921	-0.14041568
27	0xbdb7c445	-0.08972982
28	0xbcfe108a	-0.031013746
29	0xbd748ff6	-0.059707604
30	0xbe1b0b25	-0.1514097
31	0xbe07f102	-0.13275531
32	0xbe1cbcc2	-0.1530638
33	0xbe0db430	-0.13838267
34	0xbda0a139	-0.07843251
35	0x3d4f63d9	0.05063233
36	0xbcc7f673	-0.024409508
37	0xbd366c3a	-0.044536807
38	0xbdc504e9	-0.09620077
39	0xbdc62bc7	-0.096763186
40	0x3dcd41dc	0.10022327
41	0x3d878b1e	0.066183314
42	0x3d70895a	0.05872474
43	0x3cc30003	0.023803717
44	0xbd7261e1	-0.059175376
45	0x3d28690f	0.041115817
46	0xbca59bf9	-0.020215975
47	0x3d1df7cd	0.0385664
48	0x3c036d80	0.008021712
49	0xbd23d8bf	-0.040001627
50	0xbc9e1b5f	-0.01930016
51	0xbca4343f	-0.020044444
52	0xbd91abc2	-0.07112838
53	0x3d58013f	0.052735563
54	0xbd6924bc	-0.0569198
55	0xbc54a7f6	-0.012979498
56	0x3d0a86fb	0.033820134
57	0x3aea9ade	0.0017898937
58	0x3b524b6a	0.0032088407
59	0xbd4c2e14	-0.04984863
60	0x3d03b6cb	0.032156747
61	0x3d7056f5	0.05867668
62	0x3c06f63c	0.008237418
63	0x3c9d5c40	0.019209027
64	0x3d17e152	0.037080117
65	0x3ce6007e	0.028076407
66	0x3d225410	0.03963095
67	0x3cef2301	0.029191496
68	0x3c64c254	0.013962347
69	0xbb9e410e	-0.0048295325
70	0x3d28382a	0.041069187
71	0x3c26b13c	0.010174092
72	0xbca0cc2b	-0.019628605
73	0xbceb4cc5	-0.02872313
74	0xbdc44372	-0.09583177
75	0xbdd0bf02	-0.10192682
76	0xbddb6e77	-0.10714429
77	0xbd86ff7d	-0.06591699
78	0x3d8f27c9	0.0699001
79	0x3c364247	0.0111242
80	0xbd8a03ed	-0.0673903
81	0xbdd65404	-0.104652435
82	0xbde5e0ca	-0.11224516
83	0xbd028482	-0.03186465
84	0xbd110824	-0.035408154
85	0x3b093620	0.0020936802
86	0x3b89802a	0.0041961865
87	0xbdf91d33	-0.121637724
88	0xbdf4c90e	-0.11952411
89	0xbd42dbf7	-0.047573056
90	0xbd9cab0b	-0.07649811
91	0x3c2d30e3	0.0105707375
92	0xbcc93328	-0.024560526
93	0xbc05d568	-0.008168556
94	0xbd4d6550	-0.050145447
95	0xbd0e94e2	-0.034809954
96	0xbba58787	-0.0050515565
97	0xbd230f83	-0.039809715
98	0xbb039fa1	-0.002008416
99	0xbd814769	-0.063124485
100	0xbc899085	-0.016792545
101	0xbce79800	-0.028270721
102	0xbcacc165	-0.021088311
103	0x3d2b8861	0.041878108
104	0xbb999e72	-0.0046880776
105	0x3cb67ee5	0.022277305
106	0x3e0410c9	0.12897028
107	0x3d662c44	0.05619456
108	0xbd02270c	-0.03177552
109	0xbdb78348	-0.08960587
110	0x3b0f404c	0.0021858392
111	0x3da28b78	0.07936758
112	0x3d190e28	0.037367016
113	0x3d9594e8	0.07303792
114	0x3cf25341	0.029580714
115	0x3c8aa281	0.016923191
116	0x3d93dd18	0.07219905
117	0xbd03062a	-0.0319883
118	0xbd6eb8bc	-0.058281645
119	0x3d18ad9f	0.037274953
120	0xbd2f5327	-0.04280391
121	0x3c430249	0.0119024
122	0xbc8c042d	-0.017091835
123	0x3d460a5d	0.048349727
124	0x3d520c79	0.051281426
125	0x3d68c56b	0.056828897
126	0x3de660b7	0.11248916
127	0x3db89cb1	0.090142615
128	0x3ddd7a8e	0.10814391
129	0x3d3e42d8	0.046450466
130	0x3c5afa5d	0.013365355
131	0x3d698b79	0.057017777
132	0x3d33e569	0.043919954
133	0x3b9e81ae	0.0048372364
134	0x3d84aca7	0.06478243
135	0xbc364ceb	-0.011126737
136	0xbcd0855b	-0.025454214
137	0xbb92f417	-0.004484664
138	0x3d9003c7	0.070319705
139	0x3d21aa00	0.039468765
140	0x3d2e0f1e	0.042494886
141	0xbc92e003	-0.017929083
142	0x3ca0f4fe	0.019648071
143	0x3cdfd686	0.027323972
144	0x3ceafaee	0.028684106
145	0xbb80ee9c	-0.0039346945
146	0x3b6725bc	0.0035270294
147	0x3ca0b207	0.01961614
148	0x3d59cb7d	0.053172577
149	0x3dbd6fa8	0.09249812
150	0x3d7bde2e	0.061491184
151	0x3d36bbf7	0.04461285
152	0x3dc0128e	0.09378539
153	0x39a8ef66	0.00032221823
154	0x3d013239	0.031542037
155	0xbcabcba5	-0.020971129
156	0x3d9a548d	0.07535658
157	0x3e029139	0.1275071
158	0x3e17bfb2	0.1481922
159	0x3da8e713	0.08247199
160	0xbd4c7993	-0.04992063
161	0x3cbe8a3c	0.023259275
162	0xb9eaa55e	-0.00044755166
163	0x3b857c31	0.0040736427
164	0xbbd35aeb	-0.0064500473
165	0x3d868f35	0.06570283
166	0xbd4a5498	-0.04939708
167	0x3c5b2f0e	0.013377918
168	0xbc4144de	-0.011796204
169	0xbbb382bf	-0.0054782326
170	0xbd2a7305	-0.041613597
171	0xbb79779d	-0.003806568
172	0xbd04d69f	-0.03243124
173	0x3b9c4443	0.0047688796
174	0xbd044c95	-0.032299597
175	0xbdb29034	-0.08718911
176	0xbda8479d	-0.08216784
177	0x3d6ff03a	0.058578707
178	0x3d386464	0.045017615
179	0x3d918d2a	0.07107003
180	0xbde8a91e	-0.113603815
181	0xbdd58dde	-0.1042745
182	0xbcf3ed2e	-0.029776182
183	0xbd6d1d2c	-0.05788915
184	0xbc0c5cc4	-0.008567039
185	0x3c735034	0.014850665
186	0x3d7fab7b	0.062419396
187	0xbb3a6722	-0.002844282
188	0x3d793f47	0.06085136
189	0x3c1f25e8	0.009713627
190	0x3c575adc	0.013144221
191	0x3ce59f19	0.028029965
192	0xbc76e5df	-0.015069454
193	0x3d7caaaa	0.061686195
194	0xbd143a18	-0.036188215
195	0xbd24b27c	-0.04020928
196	0x3a23fd29	0.00062556803
197	0x3cd02b72	0.025411341
198	0x3cae6264	0.02128715
199	0x3dc70ac4	0.0971885
200	0x3d909f4e	0.07061635
201	0xbd6b3aa2	-0.057428963
202	0x3c84e19e	0.016220864
203	0x3d0129c8	0.031533986
204	0x3d28429b	0.041079145
205	0x3da8c1b0	0.08240068
206	0x3c203117	0.009777329
207	0x3daf2855	0.085526146
208	0x3de4ac98	0.11165732
209	0x3d628105	0.055298824
210	0x3d78dfbd	0.06076025
211	0xbd5f6ae2	-0.05454529
212	0x3d44a078	0.048004597
213	0xbaf2b55c	-0.0018517184
214	0x3dc7dec5	0.09759287
215	0x3c434e15	0.011920472
216	0xbcb8ee04	-0.022574432
217	0xbb0353cd	-0.0020038963
218	0x3dac0b12	0.08400549
219	0x3d6441ff	0.055727
220	0x3d849dfa	0.06475444
221	0x3ceec326	0.029145788
222	0x3b997758	0.0046834163
223	0xbb8bb82a	-0.0042638974
224	0xbbf4084c	-0.007447278
225	0xbdbcc71a	-0.09217663
226	0xbca3c26e	-0.019990172
227	0xbd684311	-0.056704585
228	0x3c9fb707	0.019496454
229	0xbbc2cdcb	-0.0059449426
230	0xbd5838ce	-0.05278855
231	0xbd4eb3a9	-0.050464306
232	0xbc846937	-0.016163452
233	0xbbb9072d	-0.0056466074
234	0xbde6c8ec	-0.112687916
235	0x3c99de2e	0.018782701
236	0xbd518adc	-0.051157817
237	0xbda7bb73	-0.0819005
238	0xbc455bbf	-0.0120458
239	0x3a56f5ea	0.0008200096
240	0x3c38925f	0.011265366
241	0xbbac1133	-0.0052510737
242	0xbd0b00bf	-0.03393626
243	0x3d2729c5	0.04081132
244	0xbc45beda	-0.012069428
245	0xbd5567f6	-0.052101098
246	0xbd819dab	-0.06328901
247	0x3cd14b38	0.025548562
248	0xbc3e020b	-0.011597167
249	0xbbcb7f86	-0.0062102703
250	0xbb1e8c15	-0.0024192382
251	0x3d9842c8	0.074346125
252	0xbcfb4a7e	-0.03067517
253	0xbd33ea10	-0.04392439
254	0x3b9be858	0.004757922
255	0x3cb11240	0.021615148

conv2.bias f4 [20]
0	0x3c874f37	0.016517265
1	0x3ac60588	0.001510785
2	0xbb5c6d9b	-0.0033634666
3	0xbbb59a09	-0.005542044
4	0x3cec5fcc	0.028854273
5	0x3d0596d7	0.032614555
6	0x3d3834f6	0.044972382
7	0xbd4371dc	-0.047716007
8	0xbd96f1fb	-0.07370373
9	0xbd4c5b20	-0.04989159
10	0x3d27ff4e	0.041014962
11	0x3d670a31	0.056406204
12	0xbc5ee086	-0.013603335
13	0x3cc02c2a	0.023458559
14	0x3cc36ebf	0.023856519
15	0xbd580ad6	-0.05274471
16	0xbd9178bb	-0.07103106
17	0x3d0d3620	0.034475446
18	0xbd932c7c	-0.07186219
19	0x3d210c85	0.03931858

fc1.weight f4 [50, 320]
0	0xbbdb1f14	-0.0066870544
1	0x3cad1214	0.021126784
2	0x3c80fcab	0.015745481
3	0xbd1d3959	-0.03838477
4	0xbd5ecaaf	-0.054392513
5	0xbd492f37	-0.049117293
6	0x3d9e7d4b	0.077387415
7	0x3d5bbf4c	0.05364923
8	0xbd84aa00	-0.064777374
9	0xbd04637d	-0.032321442
10	0x3d81dae2	0.06340577
11	0xbc06e4c1	-0.00823325
12	0x3cc91e7d	0.02455067
13	0x3a6bf28b	0.00090006803
14	0x3d229536	0.03969308
15	0xbd162711	-0.03665835
16	0xbd7b225f	-0.061312076
17	0xbc2e0daf	-0.01062338
18	0x3d40d365	0.0470766
19	0x3dcc4d4f	0.09975683
20	0xbc076c44	-0.008265559
21	0x3cd8c4a3	0.026460951
22	0xbd31440e	-0.043277793
23	0xbd924914	-0.07142845
24	0x3bf3c318	0.0074390285
25	0x3c775925	0.015096937
26	0xbd38e273	-0.045137834
27	0x3c361713	0.0111139
28	0x3c6afa85	0.014341955
29	0x3c2d445d	0.010575381
30	0x3d05c762	0.03266085
31	0xbd0b3d37	-0.033993926
32	0xbcc512d4	-0.02405683
33	0x3bfcfe21	0.007720724
34	0x3d01213b	0.03152583
35	0x3d95e648	0.07319313
36	0xbcb135a7	-0.021632029
37	0x3d522eb2	0.051314063
38	0x3ba7cfc6	0.005121204
39	0xbc9f49f9	-0.019444453
40	0x3c53d48c	0.012929093
41	0x3cbf6949	0.023365634
42	0xbd83bcda	-0.06432505
43	0xbd740c01	-0.05958176
44	0xbc8d70b6	-0.017265659
45	0x3cbc596a	0.022991855
46	0xbc878db9	-0.01654707
47	0xbd406948	-0.046975404
48	0xbd14b0fe	-0.036301605
49	0x3ac21a06	0.0014808781
50	0xbc58a4d1	-0.013222889
51	0x3d9642a5	0.0733693
52	0xbd0049fb	-0.031320553
53	0x3d373764	0.04473056
54	0xbb5492bc	-0.0032436093
55	0xbcb92fff	-0.022605894
56	0x3d716899	0.058937643
57	0x3ccebca5	0.025236437
58	0xbd18d3db	-0.037311416
59	0xbc989462	-0.018625442
60	0x3d1cc93c	0.03827785
61	0x3d4ebae8	0.050471216
62	0xbb974d56	-0.0046173735
63	0xbdbefaff	-0.093252175
64	0x3d8bbe82	0.06823446
65	0xbc3e01f3	-0.011597144
66	0xbdb4c5bf	-0.088267796
67	0xbe15b070	-0.14618087
68	0x3db3cbbe	0.08779095
69	0xbad78bfd	-0.0016444918
70	0xbcce4f0e	-0.02518418
71	0xbd059939	-0.032616828
72	0x3b102f06	0.0022000684
73	0xbb26e11d	-0.0025463768
74	0x3c8c2deb	0.01711174
75	0xba4e732a	-0.0007875437
76	0x3d4f3c26	0.05059447
77	0x3d39390a	0.045220412
78	0x3c21d9b1	0.009878562
79	0x3c0d292d	0.008615774
80	0x3d3dac06	0.046306632
81	0x3d60d69c	0.054892167
82	0x3d3f17d2	0.046653576
83	0xbd06931b	-0.032855134
84	0x3d55754b	0.052113812
85	0x3d07f386	0.033191226
86	0x3bf8b58c	0.0075900014
87	0xbdd36687	-0.1032229
88	0xbc3e7bf0	-0.011626229
89	0xbc70b441	-0.014691413
90	0x3c9dd161	0.019264879
91	0xbdc7ae72	-0.0975007
92	0xbd3eea11	-0.046609942
93	0xbd2b33ca	-0.041797437
94	0xbca78c3a	-0.020452607
95	0x3bc67914	0.006056914
96	0x3c951a44	0.018201001
97	0x3d4168b4	0.047218993
98	0x3d9a6b63	0.07540014
99	0xbd5eb09f	-0.054367658
100	0x3cb2289a	0.021747876
101	0x3d20902f	0.039200004
102	0xbd9beea3	-0.07613876
103	0xbdfc98eb	-0.12333854
104	0x3cc26da1	0.023733916
105	0x3dd0c1c0	0.10193205
106	0x3bfb71d9	0.007673484
107	0xbd765e72	-0.060148664
108	0xbda53f94	-0.08068767
109	0xbcf556a6	-0.029948544
110	0xbbb995a7	-0.005663592
111	0xbd098a9a	-0.033579446
112	0x3daf855b	0.085703574
113	0x3cfa3b15	0.03054575
114	0xbd73e767	-0.059546854
115	0xbd4d2f35	-0.05009385
116	0x3d822ea9	0.06356556
117	0x3cd521e3	0.026017135
118	0xbcdb07e5	-0.026737163
119	0xbdb75bdd	-0.089530684
120	0xbcfb94f0	-0.030710667
121	0x3d2644e3	0.04059304
122	0x3cda4d4a	0.026648182
123	0xbd6ba8a5	-0.05753388
124	0x3d12da2c	0.035852596
125	0x3bf498b9	0.007464495
126	0x3d09e782	0.03366805
127	0x3a8f3ef8	0.00109288
128	0xbd30445a	-0.043033935
129	0xbc7b6351	-0.015343503
130	0x3d8b744e	0.06809293
131	0x3c80d9a1	0.015728774
132	0xbc495fa8	-0.012290873
133	0xbc0fa369	-0.008766987
134	0xbc7908c4	-0.015199844
135	0x3cfc0fae	0.030769195
136	0x3c8b678b	0.017017147
137	0xbcaa2ba3	-0.02077276
138	0xbcbd23b0	-0.023088306
139	0xbc2f5862	-0.010702224
140	0xbc2e670c	-0.0106446855
141	0xbbfa2879	-0.0076342192
142	0xbc74d6c0	-0.0149437785
143	0xbdb70db7	-0.08938163
144	0xbd6a8862	-0.05725897
145	0xbdd270e6	-0.1027544
146	0xbc23f0cc	-0.010006141
147	0x3d8ca3dd	0.06867192
148	0xbe1e0773	-0.15432529
149	0xbc6287ac	-0.013826292
150	0x3c4dd2e6	0.012562489
151	0x3e0f6552	0.14003494
152	0xbd348492	-0.04407174
153	0x3d174724	0.03693308
154	0x3cb77c7c	0.022398226
155	0x3bc73a29	0.0060799313
156	0x3d97951e	0.07401489
157	0x3bc58a85	0.0060284757
158	0xbca74dae	-0.020422783
159	0xbcbe3efa	-0.023223389
160	0xbaa44b8c	-0.0012534722
161	0xbc397d4b	-0.011321376
162	0x3de7b5f9	0.113140054
163	0x3e0b9a37	0.13633047
164	0x3caebe47	0.021330966
165	0xbda1909f	-0.078889124
166	0xbd535b0e	-0.05160051
167	0xbd3b5730	-0.045737445
168	0x3d99eb9b	0.07515641
169	0xbd3a15c1	-0.045430902
170	0xbdb821f2	-0.089908496
171	0xbdcc2e7d	-0.099698044
172	0x3b0a7c84	0.0021131346
173	0xbc58fe97	-0.013244293
174	0x3ca814cc	0.02051773
175	0x3d04bc3c	0.032406077
176	0xbb356fef	-0.0027685126
177	0xbd9ee2b2	-0.077580824
178	0xbd96b111	-0.073579915
179	0xbc299707	-0.010350949
180	0x3a745d61	0.0009321776
181	0xbcc2e1d1	-0.023789318
182	0x3d9132c5	0.07089762
183	0x3d8e16f9	0.069379754
184	0xbce94268	-0.028474048
185	0x3d32fffd	0.04370116
186	0x3c875093	0.016517913
187	0xbc954465	-0.01822109
188	0xbc82af66	-0.015952777
189	0xbcdbae2a	-0.026816446
190	0xbb04e5d8	-0.00202786
191	0xbdb3aaf3	-0.0877284
192	0xbdbda69d	-0.092602946
193	0xbdef8855	-0.11695925
194	0xbc078ae7	-0.008272863
195	0x3d0238c9	0.031792436
196	0xbd48581b	-0.04891215
197	0xbd128c84	-0.035778537
198	0x3c4f1272	0.012638675
199	0x3d3f05a5	0.046636242
200	0x3d22d005	0.039749164
201	0x3d15966f	0.036520418
202	0x3b505c3d	0.003179326
203	0xbc8b6063	-0.017013734
204	0x3db3c971	0.08778656
205	0xbd52914f	-0.05140811
206	0xbd3ae130	-0.04562491
207	0xbc4fc95b	-0.012682284
208	0xbd6bd027	-0.057571556
209	0xbb8a03bb	-0.0042118705
210	0x3dd67d62	0.104731336
211	0x3da4374c	0.080183595
212	0x3b9a3fc0	0.0047073066
213	0x3ae89e78	0.0017747423
214	0xbda3e4f5	-0.080026545
215	0x3d5d2cbd	0.053997744
216	0x3cc5b3c3	0.024133569
217	0xbd9fa62c	-0.07795367
218	0xbd983eb2	-0.07433833
219	0xbc1271c1	-0.008938254
220	0xbc212e95	-0.009837766
221	0x3d608005	0.05480959
222	0xbc1619d2	-0.0091614295
223	0x3c3be2a9	0.011467614
224	0x3d9784a0	0.07398343
225	0xbc101279	-0.008793467
226	0xbdbe5b29	-0.09294731
227	0xbdb0f794	-0.08640972
228	0x3dd4db40	0.10393381
229	0x3db20a63	0.08693387
230	0xbdd42294	-0.10358158
231	0x3cd8e7ca	0.026477713
232	0xbbdbfa1c	-0.006713165
233	0x3c955e0b	0.01823332
234	0xbbf5125d	-0.0074789957
235	0x3cc18d33	0.0236269
236	0xbc67f9c2	-0.014158668
237	0x3d84393a	0.064562276
238	0xbcc6bd4b	-0.024260184
239	0xbd842c35	-0.06453744
240	0xbc437a2f	-0.011930986
241	0x3b97b1f0	0.004629366
242	0xbd0614b2	-0.03273458
243	0xbbcb9b2a	-0.0062135654
244	0x3d6fe26a	0.058565535
245	0xbc5ab172	-0.01334797
246	0xbd03e3af	-0.032199558
247	0xbdc613f6	-0.09671776
248	0x3d2a2633	0.041540336
249	0x3cc98b23	0.024602478
250	0x3c28371c	0.010267045
251	0x3cf31360	0.029672325
252	0x3d2f534f	0.04280406
253	0x3cd3c1f2	0.025849316
254	0xbb3b6b0c	-0.002859774
255	0xbbebe4ce	-0.0071989065

fc1.bias f4 [50]
0	0x3d042009	0.032257114
1	0x39fbaaf8	0.00048001832
2	0xbd1f9c6d	-0.03896754
3	0x3d1c0a2c	0.03809564
4	0x3d596aa8	0.05308023
5	0x3ca739ec	0.020413361
6	0x3c8b10c8	0.016975775
7	0x3d41f185	0.04734947
8	0x3da112dd	0.07864926
9	0x3cb9c7f5	0.022678355
10	0x3d0017de	0.03127276
11	0x3c422a02	0.011850836
12	0x3ca433cd	0.020044232
13	0x3d4ca8b0	0.04996556
14	0x3d511a58	0.051050514
15	0x3d6cfb48	0.057856828
16	0x3cb8fac8	0.02258052
17	0x3c9b41fc	0.018952362
18	0x3d715059	0.058914516
19	0x3dd02796	0.101638004
20	0x3d929f69	0.07159311
21	0xbcb8fb09	-0.02258064
22	0x3d9839b2	0.074328795
23	0x3d41d51a	0.04732237
24	0x3ce0d6c1	0.027446153
25	0xbbf54635	-0.007485176
26	0xbc41186a	-0.011785606
27	0xbcc249bc	-0.0237168
28	0x3d70f1d7	0.058824386
29	0x3da1436f	0.0787419
30	0x3d30d3f0	0.04317087
31	0x3d95521f	0.07291054
32	0xbc13c0e0	-0.009018153
33	0x3d5d31e5	0.05400266
34	0x3cc26e4f	0.02373424
35	0x3bdcf89d	0.006743504
36	0x3d807d66	0.06273918
37	0x3d819602	0.0632744
38	0x3d0cec52	0.03440506
39	0x3ddcb272	0.10776223
40	0xbd2cc8cf	-0.042183693
41	0xbd066d15	-0.032818872
42	0x3d8d9718	0.069135845
43	0x3bb42b19	0.0054983017
44	0x3b226986	0.0024782135
45	0x3c16ffce	0.009216262
46	0xbcd047ee	-0.025424924
47	0x3ce7bab3	0.028287267
48	0xbc3d8bef	-0.011569007
49	0x3daf47db	0.08558627

fc2.weight f4 [10, 50]
0	0x3e31b5c8	0.173545
1	0x3e1e11b4	0.1543644
2	0xbd979c63	-0.07402875
3	0xbdad2c1a	-0.08455677
4	0xbdb55fb5	-0.08856145
5	0x3e4121ac	0.18860501
6	0x3ca3e895	0.020008365
7	0xbe276fa6	-0.16351184
8	0xbde0623d	-0.109562375
9	0xbd3d3ca5	-0.046200413
10	0xbe2d8362	-0.1694465
11	0xbdc0a3ed	-0.09406266
12	0xbe484c98	-0.19560468
13	0xbdabeb8e	-0.08394538
14	0xbe240ece	-0.16021273
15	0x3e7ae057	0.24499641
16	0xbe1c4771	-0.15261628
17	0xbe2b5801	-0.1673279
18	0x3e6373ad	0.22212096
19	0xbe34cb7d	-0.1765575
20	0xbe50544b	-0.20344655
21	0xbc8cab44	-0.01717151
22	0x3e5c7c00	0.21531677
23	0x3ea95997	0.33076164
24	0x3e295bfb	0.16538994
25	0xbddbb5c4	-0.107280284
26	0xbe16c917	-0.14725147
27	0x3e191958	0.14951074
28	0xbdb25898	-0.08708304
29	0xbe6a320a	-0.22870651
30	0xbe2889e8	-0.16458857
31	0xbe441378	-0.19148052
32	0xbdeabc46	-0.114616916
33	0xbe05d733	-0.13070373
34	0xbe46a69e	-0.19399497
35	0xbe7f2716	-0.24917254
36	0x3e5be50d	0.21474095
37	0x3e2b4083	0.16723828
38	0xbe35f47f	-0.17769049
39	0xbde087a2	-0.1096337
40	0xbe8c2050	-0.27368402
41	0xbe4db4c9	-0.20088495
42	0x3e81d457	0.25357315
43	0x3e4461a7	0.19177876
44	0xbbabf022	-0.005247132
45	0xbcb41a7e	-0.021985289
46	0xbd87043d	-0.06592605
47	0xbe55d0ea	-0.20880476
48	0x3e447da9	0.1918856
49	0xbdb1c2ac	-0.08679709
50	0xbe98d53c	-0.29850185
51	0xbe8e4cb7	-0.27792904
52	0xbd614a9d	-0.055002797
53	0x3e472344	0.19447047
54	0x3e3b8177	0.18311106
55	0xbe54494a	-0.20731083
56	0x3e0da6db	0.13833182
57	0x3d8cf52b	0.068826996
58	0x3e636f54	0.22210437
59	0xbe0376e8	-0.12838328
60	0x3e3b7b59	0.18308772
61	0xbe799c9d	-0.2437615
62	0x3e7bbfc6	0.24584875
63	0x3e4997bf	0.19686793
64	0x3d6f5b45	0.05843665
65	0xbccfee56	-0.025382202
66	0x3e225271	0.15851761
67	0xbe433477	-0.19062982
68	0xbe09dd89	-0.13463415
69	0x3e33ef4a	0.1757175
70	0xbdbd8555	-0.09253947
71	0xbdb53fc8	-0.08850056
72	0x3e411490	0.188555
73	0xbce60bea	-0.028081853
74	0xbe35fad5	-0.17771466
75	0xbd482427	-0.048862603
76	0xbe18a060	-0.14904928
77	0xbe6fee4e	-0.2343075
78	0xbcad13a9	-0.021127539
79	0x3e227860	0.15866232
80	0xbe174ae4	-0.14774662
81	0x3e55f37a	0.2089366
82	0x3e0a890a	0.13528839
83	0xbdddde54	-0.10833421
84	0xba922823	-0.0011150878
85	0xbe594857	-0.21219002
86	0xbe1b33bf	-0.15156458
87	0x3de3da05	0.11125568
88	0xbdc91599	-0.098185726
89	0x3e5efafa	0.21775427
90	0xbe30db50	-0.17271161
91	0xbdc7892b	-0.097429596
92	0x3e777ee1	0.24169494
93	0x3ddcbd7c	0.10778329
94	0xbdf6c32a	-0.12048943
95	0x3da28c02	0.079368606
96	0x3e25ee90	0.16204286
97	0x3e16337f	0.14668082
98	0xbe886c5a	-0.26645166
99	0x3e851894	0.25995314
100	0xbe7ba68e	-0.24575254
101	0x3c607efd	0.013702151
102	0xbdae25d0	-0.08503306
103	0xbd920974	-0.07130709
104	0x3e241387	0.16023074
105	0x3e194738	0.14968574
106	0x3d5cd045	0.05390956
107	0xbe2b449a	-0.16725388
108	0xbd46b856	-0.04851564
109	0xbd8c7bc8	-0.06859547
110	0xbde79f6b	-0.113097034
111	0xbe13046f	-0.1435716
112	0xbd9c106b	-0.07620319
113	0xbe7aa248	-0.24475968
114	0x3ddfcb39	0.109274335
115	0xbe22b34e	-0.15888712
116	0x3e48b43f	0.19600008
117	0x3e175768	0.14779437
118	0x3de95f3e	0.11395119
119	0x3e52ad65	0.20573957
120	0xbdd4bdc9	-0.10387761
121	0x3ca8ddb9	0.020613538
122	0xbda85967	-0.08220177
123	0x3e84f36b	0.25966963
124	0x3e133721	0.14376499
125	0x3e12a207	0.14319621
126	0xbde40083	-0.1113291
127	0x3d3bf4df	0.045887824
128	0x3dbd9df9	0.092586465
129	0xbe3fb440	-0.18721104
130	0xbe1e4183	-0.15454678
131	0x3e5a470c	0.21316165
132	0xbe6a9f7e	-0.22912404
133	0xbbe50e55	-0.006990234
134	0x3e78afe6	0.2428585
135	0xbe0decef	-0.13859914
136	0xbd590831	-0.052986328
137	0x3e31511c	0.17316097
138	0x3e00c251	0.12574126
139	0x3e546449	0.20741381
140	0xbe1760be	-0.14782998
141	0x3e7b09e0	0.24515486
142	0x3ca46c9e	0.020071324
143	0x3dc92e61	0.09823299
144	0x3dfb64d9	0.122750945
145	0x3e0f2830	0.13980174
146	0xbd640de1	-0.0556773
147	0x3e113365	0.14179762
148	0x3daf496e	0.085589275
149	0xbdb22ff2	-0.08700551
150	0xbe5902b9	-0.21192445
151	0xbe85bec6	-0.2612211
152	0xbd2eafa2	-0.042647965
153	0xbd41db0e	-0.047328047
154	0x3e201616	0.15633425
155	0x3dd390ed	0.10330377
156	0xbe69ed3b	-0.22844402
157	0x3e0e5501	0.13899614
158	0xbdeb2fc1	-0.11483718
159	0xbde206a6	-0.11036424
160	0x3e6ecc42	0.23320106
161	0x3e052349	0.13001741
162	0xbe3a286e	-0.18179485
163	0xbde54adf	-0.11195921
164	0x3dc3224f	0.09528028
165	0x3d0984f6	0.033574067
166	0xbe2669f9	-0.16251363
167	0x3e383f30	0.17992854
168	0xbdc28eaa	-0.09499867
169	0x3e1ad50e	0.15120336
170	0x3e6163e5	0.22010763
171	0xbd503cc9	-0.05083922
172	0xbe585307	-0.21125422
173	0xbcff879f	-0.031192599
174	0x3e178ffa	0.14801016
175	0xbe252f5d	-0.16131349
176	0xbda9c63f	-0.082897656
177	0x3df971d4	0.12179914
178	0xbe622ece	-0.22088167
179	0x3e2b6ee7	0.16741525
180	0xbc4f7368	-0.012661792
181	0x3deb2c46	0.11483054
182	0x3e2dd1c9	0.16974558
183	0xbd22f254	-0.039781883
184	0x3e8ff6cb	0.28117976
185	0x3e2f03dd	0.17091317
186	0x3df9fd65	0.12206534
187	0x3e141756	0.14462027
188	0xbdc7fb55	-0.09764735
189	0xbe2da19c	-0.1695618
190	0x3e308ce5	0.17241247
191	0xbd9ca3ec	-0.07648453
192	0xbe0ed939	-0.13950051
193	0x3e00c43c	0.12574857
194	0xbe163402	-0.14668277
195	0x3d87cbe7	0.06630688
196	0xbdd5105c	-0.10403511
197	0x3e12b2b2	0.1432598
198	0xbe43935b	-0.1909918
199	0xbe47099b	-0.19437258
200	0xbdb4a9e2	-0.08821465
201	0x3e18955d	0.14900728
202	0xba402b47	-0.00073306676
203	0xbdc07782	-0.09397794
204	0xbe23e405	-0.16004951
205	0xbd533cd1	-0.05157167
206	0x3e324b59	0.17411555
207	0xbd94fa51	-0.072743066
208	0x3e779a86	0.2418004
209	0x3e3273b8	0.17426956
210	0xbc55caac	-0.013048809
211	0x3e0b9c21	0.13633777
212	0x3e7e6586	0.24843416
213	0xbe14da3f	-0.1453638
214	0xbe823d3e	-0.2543735
215	0xbd84aa13	-0.064777516
216	0xbca8ea86	-0.020619642
217	0x3e1305af	0.14357637
218	0xbe478ac7	-0.19486533
219	0x3e71005a	0.2353529
220	0x3e6daa25	0.23209436
221	0x3e85b2f5	0.26113096
222	0xbe1655f9	-0.14681233
223	0xbd0bec6c	-0.034161016
224	0xbdc22975	-0.094805636
225	0x3e565e41	0.20934393
226	0x3e74a4e1	0.23891021
227	0xbea38bf2	-0.31942707
228	0x3df036a6	0.11729173
229	0x3e210cbd	0.15727516
230	0x3e3e595a	0.18588772
231	0xbcfb237f	-0.030656574
232	0xbdf7c654	-0.12098375
233	0x3d8af70e	0.06785403
234	0xbd9f5a57	-0.07780903
235	0x3e1aef11	0.15130259
236	0x3cbda308	0.023149028
237	0xbe5ce308	-0.2157098
238	0xbdbcd786	-0.09220795
239	0xbd0c7f7c	-0.034301266
240	0x3e023429	0.1271521
241	0xbd2069ae	-0.039163284
242	0xbddfd9f7	-0.10930245
243	0xbe40e89f	-0.18838738
244	0x3da264bf	0.07929372
245	0xbe707d64	-0.23485333
246	0x3e429887	0.19003497
247	0xbe473a09	-0.19455732
248	0xbd3ca3fa	-0.046054818
249	0x3e8ff69f	0.28117844
250	0x3e2df995	0.16989739
251	0xbe0b2b48	-0.13590729
252	0x3e9234f5	0.28556028
253	0x3d894b6a	0.06703837
254	0xbdefbd00	-0.11705971
255	0xbe4166f3	-0.18886928

fc2.bias f4 [10]
0	0x3df57c74	0.11986628
1	0x3e07d0e6	0.13263282
2	0xbdf651a6	-0.12027292
3	0x3d06727b	0.03282402
4	0xbe2e9e05	-0.17052467
5	0x3b6e348a	0.0036347234
6	0xbd92fd82	-0.07177259
7	0xbe32683d	-0.17422576
8	0x3e27df64	0.1639381
9	0x3c8a3a78	0.016873583
